…
해서 씀\n\nfrom transformers import AutoModelForSeq2SeqLM\n\nmodel = AutoModelForSeq2SeqLM.from_pretrained(\"./mt5-small-deeppast-p100-final\").to(device)\nmodel.eval()\n","metadata":{"trusted":true,"execution":{"iopub.status.busy":"2026-01-04T12:28:10.950169Z","iopub.execute_input":"2026-01-04T12:28:10.950489Z","iopub.status.idle":"2026-01-04T12:28:11.406453Z","shell.execute_reply.started":"2026-01-04T12:28:10.950465Z","shell.execute_reply":"2026-01-04T12:28:11.405705Z"}},"outputs":[{"execution_count":21,"output_type":"execute_result","data":{"text/plain":"MT5ForConditionalGeneration(\n  (shared): Embedding(250112, 512)\n  (encoder): MT5Stack(\n    (embed_tokens): Embedding(250112, 512)\n    (block): ModuleList(\n      (0): MT5Block(\n        (layer): ModuleList(\n          (0): MT5LayerSelfAttention(\n            (SelfAttention): MT5Attention(\n              (q): Linear(in_features=512, out_features=384, bias=False)\n              (k): Linear(in_features=512, out_features=384, bias=False)\n              (v): Linear(in_features=512, out_features=384, bias=False)\n              (o): Linear(in_features=384, out_features=512, bias=False)\n              (relative_attention_bias): Embedding(32, 6)\n            )\n            (layer_norm): MT5LayerNorm()\n            (dropout): Dropout(p=0.1, inplace=False)\n          )\n          (1): MT5LayerFF(\n            (DenseReluDense): MT5DenseGatedActDense(\n              (wi_0): Linear(in_features=512, out_features=1024, bias=False)\n              (wi_1): Linear(in_features=512, out_features=1024, bias=False)\n              (wo): Linear(in_features=1024, out_features=512, bias=False)\n              (dropout): Dropout(p=0.1, inplace=False)\n              (act): NewGELUActivation()\n            )\n            (layer_norm): MT5LayerNorm()\n            (dropout): Dropout(p=0.1, inplace=False)\n          )\n        )\n      )\n      (1-7): 7 x MT5Block(\n        (layer): ModuleList(\n          (0): MT5LayerSelfAttention(\n            (SelfAttention): MT5Attention(\n              (q): Linear(in_features=512, out_features=384, bias=False)\n              (k): Linear(in_features=512, out_features=384, bias=False)\n              (v): Linear(in_features=512, out_features=384, bias=False)\n              (o): Linear(in_features=384, out_features=512, bias=False)\n            )\n            (layer_norm): MT5LayerNorm()\n            (dropout): Dropout(p=0.1, inplace=False)\n          )\n          (1): MT5LayerFF(\n            (DenseReluDense): MT5DenseGatedActDense(\n              (wi_0): Linear(in_features=512, out_features=1024, bias=False)\n              (wi_1): Linear(in_features=512, out_features=1024, bias=False)\n              (wo): Linear(in_features=1024, out_features=512, bias=False)\n              (dropout): Dropout(p=0.1, inplace=False)\n              (act): NewGELUActivation()\n            )\n            (layer_norm): MT5LayerNorm()\n            (dropout): Dropout(p=0.1, inplace=False)\n          )\n        )\n      )\n    )\n    (final_layer_norm): MT5LayerNorm()\n    (dropout): Dropout(p=0.1, inplace=False)\n  )\n  (decoder): MT5Stack(\n    (embed_tokens): Embedding(250112, 512)\n    (block): ModuleList(\n      (0): MT5Block(\n        (layer): ModuleList(\n          (0): MT5LayerSelfAttention(\n            (SelfAttention): MT5Attention(\n              (q): Linear(in_features=512, out_features=384, bias=False)\n              (k): Linear(in_features=512, out_features=384, bias=False)\n              (v): Linear(in_features=512, out_features=384, bias=False)\n              (o): Linear(in_features=384, out_features=512, bias=False)\n              (relative_attention_bias): Embedding(32, 6)\n            )\n            (layer_norm): MT5LayerNorm()\n            (dropout): Dropout(p=0.1, inplace=False)\n          )\n          (1): MT5LayerCrossAttention(\n            (EncDecAttention): MT5Attention(\n              (q): Linear(in_features=512, out_features=384, bias=False)\n              (k): Linear(in_features=512, out_features=384, bias=False)\n              (v): Linear(in_features=512, out_features=384, bias=False)\n              (o): Linear(in_features=384, out_features=512, bias=False)\n            )\n            (layer_norm): MT5LayerNorm()\n            (dropout): Dropout(p=0.1, inplace=False)\n          )\n          (2): MT5LayerFF(\n            (DenseReluDense): MT5DenseGatedActDense(\n              (wi_0): Linear(in_features=512, out_features=1024, bias=False)\n              (wi_1): Linear(in_features=512, out_features=1024, bias=False)\n              (wo): Linear(in_features=1024, out_features=512, bias=False)\n              (dropout): Dropout(p=0.1, inplace=False)\n              (act): NewGELUActivation()\n            )\n            (layer_norm): MT5LayerNorm()\n            (dropout): Dropout(p=0.1, inplace=False)\n          )\n        )\n      )\n      (1-7): 7 x MT5Block(\n        (layer): ModuleList(\n          (0): MT5LayerSelfAttention(\n            (SelfAttention): MT5Attention(\n              (q): Linear(in_features=512, out_features=384, bias=False)\n              (k): Linear(in_features=512, out_features=384, bias=False)\n              (v): Linear(in_features=512, out_features=384, bias=False)\n              (o): Linear(in_features=384, out_features=512, bias=False)\n            )\n            (layer_norm): MT5LayerNorm()\n            (dropout): Dropout(p=0.1, inplace=False)\n          )\n          (1): MT5LayerCrossAttention(\n            (EncDecAttention): MT5Attention(\n              (q): Linear(in_features=512, out_features=384, bias=False)\n              (k): Linear(in_features=512, out_features=384, bias=False)\n              (v): Linear(in_features=512, out_features=384, bias=False)\n              (o): Linear(in_features=384, out_features=512, bias=False)\n            )\n            (layer_norm): MT5LayerNorm()\n            (dropout): Dropout(p=0.1, inplace=False)\n          )\n          (2): MT5LayerFF(\n            (DenseReluDense): MT5DenseGatedActDense(\n              (wi_0): Linear(in_features=512, out_features=1024, bias=False)\n              (wi_1): Linear(in_features=512, out_features=1024, bias=False)\n              (wo): Linear(in_features=1024, out_features=512, bias=False)\n              (dropout): Dropout(p=0.1, inplace=False)\n              (act): NewGELUActivation()\n            )\n            (layer_norm): MT5LayerNorm()\n            (dropout): Dropout(p=0.1, inplace=False)\n          )\n        )\n      )\n    )\n    (final_layer_norm): MT5LayerNorm()\n    (dropout): Dropout(p=0.1, inplace=False)\n  )\n  (lm_head): Linear(in_features=512, out_features=250112, bias=False)\n)"},"metadata":{}}],"execution_count":21},{"cell_type":"code","source":"# 13. 예측 수행 (길이 제약 + 빔서치 튜닝)\n\nimport torch\nfrom torch.utils.data import DataLoader\n\nmodel.eval()\nmodel.to(device)\n\ntokenized_test_pt = tokenized_test.with_format(\"torch\")\n\ntest_loader = DataLoader(\n    tokenized_test_pt,\n    batch_size=4,\n)\n\ndecoded = []\n\nfo
…
