…
   "metadata": {
    "execution": {
     "iopub.execute_input": "2026-01-04T14:56:46.660798Z",
     "iopub.status.busy": "2026-01-04T14:56:46.660561Z",
     "iopub.status.idle": "2026-01-04T14:56:47.116123Z",
     "shell.execute_reply": "2026-01-04T14:56:47.115479Z"
    },
    "papermill": {
     "duration": 0.462642,
     "end_time": "2026-01-04T14:56:47.117678",
     "exception": false,
     "start_time": "2026-01-04T14:56:46.655036",
     "status": "completed"
    },
    "tags": []
   },
   "outputs": [
    {
     "data": {
      "text/plain": [
       "MT5ForConditionalGeneration(\n",
       "  (shared): Embedding(250112, 512)\n",
       "  (encoder): MT5Stack(\n",
       "    (embed_tokens): Embedding(250112, 512)\n",
       "    (block): ModuleList(\n",
       "      (0): MT5Block(\n",
       "        (layer): ModuleList(\n",
       "          (0): MT5LayerSelfAttention(\n",
       "            (SelfAttention): MT5Attention(\n",
       "              (q): Linear(in_features=512, out_features=384, bias=False)\n",
       "              (k): Linear(in_features=512, out_features=384, bias=False)\n",
       "              (v): Linear(in_features=512, out_features=384, bias=False)\n",
       "              (o): Linear(in_features=384, out_features=512, bias=False)\n",
       "              (relative_attention_bias): Embedding(32, 6)\n",
       "            )\n",
       "            (layer_norm): MT5LayerNorm()\n",
       "            (dropout): Dropout(p=0.1, inplace=False)\n",
       "          )\n",
       "          (1): MT5LayerFF(\n",
       "            (DenseReluDense): MT5DenseGatedActDense(\n",
       "              (wi_0): Linear(in_features=512, out_features=1024, bias=False)\n",
       "              (wi_1): Linear(in_features=512, out_features=1024, bias=False)\n",
       "              (wo): Linear(in_features=1024, out_features=512, bias=False)\n",
       "              (dropout): Dropout(p=0.1, inplace=False)\n",
       "              (act): NewGELUActivation()\n",
       "            )\n",
       "            (layer_norm): MT5LayerNorm()\n",
       "            (dropout): Dropout(p=0.1, inplace=False)\n",
       "          )\n",
       "        )\n",
       "      )\n",
       "      (1-7): 7 x MT5Block(\n",
       "        (layer): ModuleList(\n",
       "          (0): MT5LayerSelfAttention(\n",
       "            (SelfAttention): MT5Attention(\n",
       "              (q): Linear(in_features=512, out_features=384, bias=False)\n",
       "              (k): Linear(in_features=512, out_features=384, bias=False)\n",
       "              (v): Linear(in_features=512, out_features=384, bias=False)\n",
       "              (o): Linear(in_features=384, out_features=512, bias=False)\n",
       "            )\n",
       "            (layer_norm): MT5LayerNorm()\n",
       "            (dropout): Dropout(p=0.1, inplace=False)\n",
       "          )\n",
       "          (1): MT5LayerFF(\n",
       "            (DenseReluDense): MT5DenseGatedActDense(\n",
       "              (wi_0): Linear(in_features=512, out_features=1024, bias=False)\n",
       "              (wi_1): Linear(in_features=512, out_features=1024, bias=False)\n",
       "              (wo): Linear(in_features=1024, out_features=512, bias=False)\n",
       "              (dropout): Dropout(p=0.1, inplace=False)\n",
       "              (act): NewGELUActivation()\n",
       "            )\n",
       "            (layer_norm): MT5LayerNorm()\n",
       "            (dropout): Dropout(p=0.1, inplace=False)\n",
       "          )\n",
       "        )\n",
       "      )\n",
       "    )\n",
       "    (final_layer_norm): MT5LayerNorm()\n",
       "    (dropout): Dropout(p=0.1, inplace=False)\n",
       "  )\n",
       "  (decoder): MT5Stack(\n",
       "    (embed_tokens): Embedding(250112, 512)\n",
       "    (block): ModuleList(\n",
       "      (0): MT5Block(\n",
       "        (layer): ModuleList(\n",
       "          (0): MT5LayerSelfAttention(\n",
       "            (SelfAttention): MT5Attention(\n",
       "              (q): Linear(in_features=512, out_features=384, bias=False)\n",
       "              (k): Linear(in_features=512, out_features=384, bias=False)\n",
       "              (v): Linear(in_features=512, out_features=384, bias=False)\n",
       "              (o): Linear(in_features=384, out_features=512, bias=False)\n",
       "              (relative_attention_bias): Embedding(32, 6)\n",
       "            )\n",
       "            (layer_norm): MT5LayerNorm()\n",
       "            (dropout): Dropout(p=0.1, inplace=False)\n",
       "          )\n",
       "          (1): MT5LayerCrossAttention(\n",
       "            (EncDecAttention): MT5Attention(\n",
       "              (q): Linear(in_features=512, out_features=384, bias=False)\n",
       "              (k): Linear(in_features=512, out_features=384, bias=False)\n",
       "              (v): Linear(in_features=512, out_features=384, bias=False)\n",
       "              (o): Linear(in_features=384, out_features=512, bias=False)\n",
       "            )\n",
       "            (layer_norm): MT5LayerNorm()\n",
       "            (dropout): Dropout(p=0.1, inplace=False)\n",
       "          )\n",
       "          (2): MT5LayerFF(\n",
       "            (DenseReluDense): MT5DenseGatedActDense(\n",
       "              (wi_0): Linear(in_features=512, out_features=1024, bias=False)\n",
       "              (wi_1): Linear(in_features=512, out_features=1024, bias=False)\n",
       "              (wo): Linear(in_features=1024, out_features=512, bias=False)\n",
       "              (dropout): Dropout(p=0.1, inplace=False)\n",
       "              (act): NewGELUActivation()\n",
       "            )\n",
       "            (layer_norm): MT5LayerNorm()\n",
       "            (dropout): Dropout(p=0.1, inplace=False)\n",
       "          )\n",
       "        )\n",
       "      )\n",
       "      (1-7): 7 x MT5Block(\n",
       "        (layer): ModuleList(\n",
       "          (0): MT5LayerSelfAttention(\n",
       "            (SelfAttention): MT5Attention(\n",
       "              (q): Linear(in_features=512, out_features=384, bias=False)\n",
       "              (k): Linear(in_features=512, out_features=384, bias=False)\n",
       "              (v): Linear(in_features=512, out_features=384, bias=False)\n",
       "              (o): Linear(in_features=384, out_features=512, bias=False)\n",
       "            )\n",
       "            (layer_norm): MT5LayerNorm()\n",
       "            (dropout): Dropout(p=0.1, inplace=False)\n",
       "          )\n",
       "          (1): MT5LayerCrossAttention(\n",
       "            (EncDecAttention): MT5Attention(\n",
       "              (q): Linear(in_features=512, out_features=384, bias=False)\n",
       "              (k): Linear(in_features=512, out_features=384, bias=False)\n",
       "              (v): Linear(in_features=512, out_features=384, bias=False)\n",
       "              (o): Linear(in_features=384, out_features=512, bias=False)\n",
       "            )\n",
       "            (layer_norm): MT5LayerNorm()\n",
       "            (dropout): Dropout(p=0.1, inplace=False)\n",
       "          )\n",
       "          (2): MT5LayerFF(\n",
       "            (DenseReluDense): MT5DenseGatedActDense(\n",
       "              (wi_0): Linear(in_features=512, out_features=1024, bias=False)\n",
       "              (wi_1): Linear(in_features=512, out_features=1024, bias=False)\n",
       "              (wo): Linear(in_features=1024, out_features=512, bias=False)\n",
       "              (dropout): Dropout(p=0.1, inplace=False)\n",
       "              (act): NewGELUActivation()\n",
       "            )\n",
       "            (layer_norm): MT5LayerNorm()\n",
       "            (dropout): Dropout(p=0.1, inplace=False)\n",
       "          )\n",
       "        )\n",
       "      )\n",
       "    )\n",
       "    (final_layer_norm): MT5LayerNorm()\n",
       "    (dropout): Dropout(p=0.1, inplace=False)\n",
       "  )\n",
       "  (lm_head): Linear(in_features=512, out_features=250112, bias=False)\n",
       ")"
      ]
     },
     "execution_count": 16,
     "metadata": {},
     "output_type": "execute_result"
    }
   ],
   "source": [
    "# 13ë²ˆ ì…€ ì‹¤í–‰ì¤€ì— í•­ìƒ ì €ì¥ëœ ëª¨ë¸ì„ ë‹¤ì‹œ ë¡œë“œí•´ì„œ ì”€\n",
    "\n",
    "from transformers import AutoModelForSeq2SeqLM\n",
    "\n",
    "model = AutoModelForSeq2SeqLM.from_pretrained(\"./mt5-small-deeppast-p100-final\").to(device)\n",
…
